


TEST #
=====
axis1 0
Train fold with 1870 images
label
covid      990
healthy    440
others     440
Name: label, dtype: int64

Validation fold with 440 images
label
covid      220
healthy    110
others     110
Name: label, dtype: int64
------------------------------
Model: "sequential_20"
_________________________________________________________________
Layer (type)                 Output Shape              Param #   
=================================================================
conv2d_100 (Conv2D)          (None, 198, 198, 32)      896       
_________________________________________________________________
max_pooling2d_100 (MaxPoolin (None, 99, 99, 32)        0         
_________________________________________________________________
conv2d_101 (Conv2D)          (None, 97, 97, 64)        18496     
_________________________________________________________________
max_pooling2d_101 (MaxPoolin (None, 48, 48, 64)        0         
_________________________________________________________________
conv2d_102 (Conv2D)          (None, 46, 46, 128)       73856     
_________________________________________________________________
max_pooling2d_102 (MaxPoolin (None, 23, 23, 128)       0         
_________________________________________________________________
conv2d_103 (Conv2D)          (None, 21, 21, 128)       147584    
_________________________________________________________________
max_pooling2d_103 (MaxPoolin (None, 10, 10, 128)       0         
_________________________________________________________________
conv2d_104 (Conv2D)          (None, 8, 8, 256)         295168    
_________________________________________________________________
max_pooling2d_104 (MaxPoolin (None, 4, 4, 256)         0         
_________________________________________________________________
flatten_20 (Flatten)         (None, 4096)              0         
_________________________________________________________________
dense_40 (Dense)             (None, 512)               2097664   
_________________________________________________________________
dropout_20 (Dropout)         (None, 512)               0         
_________________________________________________________________
dense_41 (Dense)             (None, 3)                 1539      
=================================================================
Total params: 2,635,203
Trainable params: 2,635,203
Non-trainable params: 0
_________________________________________________________________
Found 1870 validated image filenames belonging to 3 classes.
Found 440 validated image filenames belonging to 3 classes.
Epoch 1/50
116/116 [==============================] - 64s 553ms/step - loss: 0.8724 - accuracy: 0.6251 - val_loss: 3.0699 - val_accuracy: 0.4352
…
