


TEST #
=====
axis1 0
Train fold with 1870 images
label
covid      990
healthy    440
others     440
Name: label, dtype: int64

Validation fold with 440 images
label
covid      220
healthy    110
others     110
Name: label, dtype: int64
------------------------------
Model: "sequential"
_________________________________________________________________
Layer (type)                 Output Shape              Param #   
=================================================================
conv2d (Conv2D)              (None, 198, 198, 32)      896       
_________________________________________________________________
max_pooling2d (MaxPooling2D) (None, 99, 99, 32)        0         
_________________________________________________________________
conv2d_1 (Conv2D)            (None, 97, 97, 64)        18496     
_________________________________________________________________
max_pooling2d_1 (MaxPooling2 (None, 48, 48, 64)        0         
_________________________________________________________________
conv2d_2 (Conv2D)            (None, 46, 46, 128)       73856     
_________________________________________________________________
max_pooling2d_2 (MaxPooling2 (None, 23, 23, 128)       0         
_________________________________________________________________
conv2d_3 (Conv2D)            (None, 21, 21, 128)       147584    
_________________________________________________________________
max_pooling2d_3 (MaxPooling2 (None, 10, 10, 128)       0         
_________________________________________________________________
conv2d_4 (Conv2D)            (None, 8, 8, 256)         295168    
_________________________________________________________________
max_pooling2d_4 (MaxPooling2 (None, 4, 4, 256)         0         
_________________________________________________________________
flatten (Flatten)            (None, 4096)              0         
_________________________________________________________________
dense (Dense)                (None, 512)               2097664   
_________________________________________________________________
dropout (Dropout)            (None, 512)               0         
_________________________________________________________________
dense_1 (Dense)              (None, 3)                 1539      
=================================================================
Total params: 2,635,203
Trainable params: 2,635,203
Non-trainable params: 0
_________________________________________________________________
Found 1870 validated image filenames belonging to 3 classes.
Found 440 validated image filenames belonging to 3 classes.
Epoch 1/25
116/116 [==============================] - 61s 524ms/step - loss: 1.0294 - accuracy: 0.5286 - val_loss: 1.0403 - val_accuracy: 0.4954
…
